Result/LSS_LSTM_0_1_FR/best.pth (torch, 20798 bytes, 14 tensors)

lstm.weight_ih_l0 f4 [100, 13]
0	0xbe34766c	-0.176233
1	0x3e2ca00f	0.16857933
2	0xbe07f6a2	-0.13277677
3	0xbc958c0f	-0.018255262
4	0x3e0b6d9a	0.13616028
5	0x3c2b957a	0.01047265
6	0x3e30d23a	0.17267695
7	0xbd3da237	-0.04629728
8	0x3d9418e5	0.07231311
9	0x3e70e0be	0.23523232
10	0x3e4106ee	0.188503
11	0x3dfb3270	0.122654796
12	0x3e56ec55	0.20988591
13	0x3cb3e03b	0.021957507
14	0x3d8d081e	0.06886314
15	0x3d3323c9	0.0437353
16	0xbe225c68	-0.15855563
17	0xbc760575	-0.0150159495
18	0x3da95d2c	0.08269724
19	0x3dd2521b	0.102695666
20	0x3cbe2eb8	0.023215637
21	0x3e3a26d0	0.18178868
22	0xbd959b65	-0.0730503
23	0x3d7c8a7b	0.061655503
24	0x3ec9db0c	0.39424932
25	0xbda911fc	-0.08255383
26	0x3dad21f7	0.08453744
27	0xbdd7a112	-0.105287686
28	0xbd706e21	-0.058698777
29	0x3d678236	0.056520663
30	0xbe31ef9d	-0.17376561
31	0x3de2d45d	0.11075661
32	0xbe984c3d	-0.29745665
33	0xbeea4e6c	-0.45762956
34	0x3dcf80de	0.10132001
35	0xbe22ef6a	-0.15911642
36	0x3d4f76d9	0.05065045
37	0x3e051e5f	0.12999867
38	0xbe501774	-0.20321447
39	0x3d9f5d0e	0.07781421
40	0xbe097ec7	-0.13427268
41	0xbdfd8b0d	-0.123800375
42	0x3de343b9	0.110969014
43	0x3e4ff1d6	0.20307097
44	0xbe13f5c2	-0.14449218
45	0xbbd28b86	-0.006425324
46	0x3e393af4	0.18088895
47	0xbe16a90c	-0.14712924
48	0xbd51d558	-0.05122885
49	0x3ddf35e6	0.10898952
50	0xbd77db9d	-0.060512174
51	0xbe1913b8	-0.14948928
52	0xbe0dc31c	-0.1384396
53	0x3e06ff87	0.13183413
54	0x3e1c528b	0.15265863
55	0xbd2e3fdd	-0.042541374
56	0xbb5aeb59	-0.0033404438
57	0x3e356963	0.17715983
58	0x3cf44e13	0.029822385
59	0xbd6fc2b3	-0.05853529
60	0xbe037df8	-0.12841022
61	0xbe5d8eab	-0.21636455
62	0xbdc72f6c	-0.09725842
63	0xbdea4174	-0.114382654
64	0xbe76c86d	-0.24099894
65	0xbe9bfee7	-0.30467913
66	0xbca236d8	-0.019801542
67	0xbe48807f	-0.19580267
68	0xbe284d70	-0.1643579
69	0xbe447290	-0.19184327
70	0xbe802872	-0.25030857
71	0xbe1baa03	-0.15201573
72	0xbc86d747	-0.016460074
73	0x3de65970	0.112475276
74	0xbd8ee7de	-0.06977819
75	0x3e6051de	0.2190623
76	0xbe58b731	-0.21163632
77	0xbd405047	-0.04695156
78	0xbdce8f96	-0.100859806
79	0xbd3f1cc0	-0.046658278
80	0x3d47e488	0.04880193
81	0x3ca0ad1d	0.019613797
82	0x3e6669b4	0.2250126
83	0x3df61b64	0.12016943
84	0x3cb13d51	0.021635683
85	0x3e1fca2e	0.15604469
86	0x3d5c5155	0.0537885
87	0x3e2940f7	0.16528688
88	0xbe04faff	-0.12986372
89	0xbc810521	-0.015749516
90	0x3e4c3ad5	0.19944318
91	0x3d3f5941	0.04671598
92	0x3d20f787	0.03929856
93	0x3c2ea098	0.010658406
94	0xbe3bd71c	-0.18343776
95	0xbdef119e	-0.11673282
96	0xbdf5d600	-0.12003708
97	0xbe117f80	-0.14208794
98	0xbe4771ea	-0.19477049
99	0xbd711f74	-0.058867887
100	0xbe59b959	-0.21262111
101	0xbd096c86	-0.03355076
102	0xbd07db0b	-0.03316788
103	0x3e25534a	0.16145054
104	0xbc1f39b7	-0.00971835
105	0xbd876191	-0.06610406
106	0x3dafc349	0.085821696
107	0x3da3f3e2	0.08005501
108	0x3e507b31	0.20359494
109	0x3cc98302	0.024598602
110	0x3c0d9101	0.008640529
111	0x3e356cbd	0.17717262
112	0xbdf6d4d2	-0.12052311
113	0x3e700b39	0.23441781
114	0x3d3e538e	0.046466403
115	0x3e0b1f88	0.13586247
116	0x3e0c386e	0.13693401
117	0x3e3b4676	0.18288597
118	0x3d2727c1	0.040809397
119	0x3dd9dbab	0.106376015
120	0x3cf19600	0.02949047
121	0xbd8dc26c	-0.06921849
122	0x3e24fbf0	0.16111732
123	0x3de7cded	0.11318574
124	0xbd8dc1ea	-0.06921752
125	0xbdd4c497	-0.10389059
126	0x3e3e34d9	0.18574847
127	0xbda7d95c	-0.08195755
128	0x3dd381a6	0.10327463
129	0x3e019845	0.12655742
130	0x3e872989	0.26398876
131	0x3dc8b877	0.09800809
132	0xbe8bf444	-0.27334797
133	0xbd9348f9	-0.07191653
134	0xbe392033	-0.1807869
135	0xbd8680b5	-0.06567518
136	0x3cc3ccff	0.02390146
137	0x3ced5c78	0.028974757
138	0x3c973092	0.018455777
139	0xbe774be8	-0.2415005
140	0x3dca998a	0.098925665
141	0xbe16ca9e	-0.1472573
142	0x3e6d0c08	0.23149121
143	0xbb755c0c	-0.0037438897
144	0xbdb6bf77	-0.08923238
145	0x3e65ccf5	0.22441466
146	0x3c4b6e1e	0.012416391
147	0x3df5374f	0.1197344
148	0x3d855316	0.06509988
149	0x3d864e93	0.065579556
150	0x3e2e4f18	0.1702236
151	0xbcd80a46	-0.026372086
152	0x3e897d8a	0.2685359
153	0x3c32c0e2	0.010910245
154	0x3e2e2bab	0.17008846
155	0x3cd9a610	0.026568443
156	0xbda09288	-0.078404486
157	0x3e0f619b	0.14002077
158	0x3e1ff6da	0.1562151
159	0x3e426303	0.18983082
160	0x3c7b78c7	0.01534862
161	0x3e2bc1ae	0.16773102
162	0x3dda0a11	0.10646451
163	0xbd31c680	-0.043402195
164	0xbbb38602	-0.0054786215
165	0xbd37ef5f	-0.044906016
166	0x3d65de96	0.056120478
167	0x3e1b2c1c	0.15153545
168	0x3dc3111b	0.09524747
169	0x3d7918bf	0.060814615
170	0xbe590d8b	-0.21196572
171	0xbde3fc0b	-0.11132058
172	0x3d0bca89	0.0341287
173	0x3e5779f9	0.21042623
174	0xbe28a5f9	-0.16469564
175	0xbe744a02	-0.23856357
176	0xbe0f1c6e	-0.13975689
177	0x3e02b329	0.12763657
178	0xbd8ddfc1	-0.06927443
179	0x3c61bb6b	0.013777594
180	0xbc0e00c5	-0.008667176
181	0x3d3c6cea	0.046002306
182	0x3d8334e7	0.06406575
183	0x3e7286df	0.23684262
184	0xbe39be35	-0.18138964
185	0xbe1caed4	-0.15301067
186	0x3e6a1b9e	0.22862098
187	0xbe15ac9e	-0.1461663
188	0x3ba0c350	0.0049060956
189	0x3e42729e	0.18989035
190	0x3dac190c	0.08403215
191	0x3d94e4cd	0.07270203
192	0x3dda38a4	0.106553346
193	0x3c92a5cc	0.017901324
194	0xbe635bb3	-0.22202949
195	0x3dd96867	0.10615616
196	0xbd8d015e	-0.068850264
197	0x3db7d68a	0.08976467
198	0xbd81790f	-0.06321918
199	0xbd686ced	-0.056744505
200	0xbda77e9f	-0.08178448
201	0x3d46be27	0.048521187
202	0x3e5453f5	0.20735152
203	0x3e89868b	0.2686046
204	0x3e9cb3fc	0.30606067
205	0xbb229e3a	-0.0024813549
206	0x3d6b3e4c	0.057432458
207	0x3ccc7215	0.024956742
208	0xbe31dbc8	-0.17368996
209	0xbe1c6979	-0.1527461
210	0x3d8c061c	0.06837103
211	0x3d7d79c8	0.061883718
212	0xbddabce7	-0.106805615
213	0xbdc41a8d	-0.09575377
214	0x3e9ec339	0.31008318
215	0xbe4c8f44	-0.19976526
216	0xbd5b9afe	-0.05361461
217	0x3e388075	0.18017752
218	0x3db889e5	0.09010676
219	0xbe1d699b	-0.15372317
220	0xbdcc09b6	-0.0996279
221	0xbe6b241e	-0.22962996
222	0x3e3f307e	0.18670842
223	0x3ce2b6ed	0.027675116
224	0xbeafa4db	-0.34305462
225	0x3e45f6d9	0.19332446
226	0x3d16aa6b	0.036783617
227	0xbe237dc0	-0.15965939
228	0xbdda0d6d	-0.10647092
229	0x3e5adbf9	0.21372975
230	0xbea9c2c7	-0.33156416
231	0x3e3360ba	0.17517367
232	0xbe1a724e	-0.15082666
233	0x3e1d1124	0.1533857
234	0xbe6ed108	-0.23321927
235	0x3e8e9dc5	0.27854744
236	0xbd92edd3	-0.071742676
237	0x3d05d395	0.032672483
238	0x3e5eff92	0.2177718
239	0x3e174352	0.14771774
240	0x3e16fa9c	0.14744037
241	0x3d8d66e8	0.069043934
242	0x3ba81931	0.005129956
243	0x3e22e843	0.15908913
244	0xba8f9de3	-0.0010957088
245	0x3dfafbe3	0.12255075
246	0x3c5e0a02	0.013552191
247	0xbdb04c1c	-0.08608267
248	0xbe34d066	-0.17657623
249	0x3d74bb48	0.059748918
250	0x3dca2f34	0.098722845
251	0x3d264079	0.04058883
252	0x3e808c14	0.2510687
253	0x3d03208a	0.032013454
254	0xbe124b44	-0.14286524
255	0x3dea98dc	0.11454937

lstm.weight_hh_l0 f4 [100, 25]
0	0xbe303b5c	-0.17210144
1	0xbe85e8e5	-0.26154247
2	0xbd1d3686	-0.038382076
3	0x3e2b2ccb	0.16716306
4	0x3e086775	0.13320716
5	0x3e25d31b	0.16193812
6	0x3d9df487	0.077126555
7	0x3dda3d62	0.10656239
8	0xbd4fbf6c	-0.050719664
9	0x3b929993	0.004473874
10	0xbd6a3286	-0.05717709
11	0x3e1b7d44	0.15184504
12	0x3d18672c	0.037207767
13	0x3e27318e	0.16327497
14	0x3e4ef195	0.20209344
15	0x3ddf9877	0.10917752
16	0x3dd20943	0.10255673
17	0xbdc9efdb	-0.09860202
18	0xbcbcefdf	-0.023063598
19	0x3e0c13fb	0.13679497
20	0x3dc58442	0.09644367
21	0xbde249fe	-0.11049269
22	0xbdbae53a	-0.09125753
23	0x3e35c221	0.17749836
24	0x3c8b22b2	0.016984317
25	0xbe26c68a	-0.16286674
26	0xbc9a8ab9	-0.018864976
27	0x3e54e158	0.20789087
28	0x3e268fc0	0.16265774
29	0x3ded4159	0.1158473
30	0xbe48bfb4	-0.19604379
31	0x3e758dc2	0.23979858
32	0x3d53bd66	0.051694296
33	0xbe29055b	-0.16505949
34	0xbd162631	-0.036657516
35	0x3e6a8cf0	0.22905326
36	0x3dafbcd1	0.08580936
37	0x3d8b3854	0.06797853
38	0x3eaf52e9	0.34242943
39	0x3dbc6746	0.09199385
40	0x3e7d436e	0.24732754
41	0x3d34cf21	0.044142846
42	0x3d5933fa	0.053028084
43	0x3b28d523	0.0025761805
44	0x3e2301f9	0.15918721
45	0xbe05f6a8	-0.13082373
46	0xbc078661	-0.0082717845
47	0xbe506870	-0.2035234
48	0x3ea2680d	0.3172001
49	0x3df9e699	0.12202186
50	0xbe0cc027	-0.13745175
51	0xbdb1286b	-0.08650287
52	0xbd1a9662	-0.037741072
53	0x3d420ec4	0.047377363
54	0x3c931dd6	0.017958563
55	0xbe71a089	-0.23596396
56	0xbd26bd53	-0.040707897
57	0x3dc1bcdb	0.094598494
58	0x3d45a044	0.048248544
59	0xbe1049d5	-0.14090665
60	0xbdaef894	-0.08543506
61	0x3e38597b	0.18002884
62	0xbddd76da	-0.10813685
63	0xbbb9a7fc	-0.0056657773
64	0xbc1ca624	-0.009561095
65	0xbe36a11d	-0.17834897
66	0xbdb7af47	-0.089689784
67	0xbeb158e9	-0.34638146
68	0x3e0e9bde	0.13926646
69	0xbe1f3885	-0.15548904
70	0x3e862387	0.2619898
71	0xbc884936	-0.016636472
72	0xbea1fbce	-0.31637424
73	0xbe1de6a6	-0.15420017
74	0x3df638d8	0.12022561
75	0x3debb8d7	0.11509865
76	0x3e1ca260	0.15296316
77	0x3d8d951c	0.06913206
78	0xbc8b5037	-0.017006023
79	0xbe5a3ff6	-0.21313462
80	0xbe08e547	-0.13368712
81	0x3e035b3d	0.12827773
82	0xbe274100	-0.1633339
83	0x3da00cab	0.07814916
84	0xbc85e5eb	-0.016344985
85	0x3e0ced2c	0.13762349
86	0xbd8af858	-0.06785649
87	0x3d8b3584	0.06797317
88	0x3de413c7	0.11136585
89	0x3aff106b	0.0019459849
90	0x3d769d20	0.06020844
91	0x3e11bd6f	0.1423242
92	0x3c56c29c	0.013107922
93	0xbe2af61a	-0.16695443
94	0xbe3ac0d6	-0.18237624
95	0xbcab8027	-0.020935131
96	0x3dcfcbb2	0.10146274
97	0xbe31f6b3	-0.17379265
98	0x3dbccaf7	0.092184
99	0xbbe29b14	-0.0069154594
100	0x3cc8152a	0.024424154
101	0x3e9e518f	0.309216
102	0xbd0082f0	-0.03137487
103	0x3e1a6382	0.15077022
104	0x3eb9f596	0.3632018
105	0xbc00a1fa	-0.007851118
106	0xbc7a94ee	-0.015294297
107	0xbd8a2bda	-0.06746645
108	0xbe20810e	-0.1567423
109	0xbe689f33	-0.2271698
110	0x3e009b27	0.12559186
111	0xbca00148	-0.019531861
112	0xbe8b70b4	-0.27234423
113	0xbd5fb0ac	-0.054611847
114	0xbcca19c2	-0.024670485
115	0xbda464bd	-0.08027027
116	0x3e0c6403	0.13710026
117	0x3e186fc8	0.14886391
118	0xbdde10ba	-0.10843034
119	0xbe727f2f	-0.23681329
120	0xbe0749c7	-0.13211738
121	0xbe2a659f	-0.16640328
122	0xbe016d9a	-0.12639466
123	0x3e20be8d	0.1569769
124	0x3d5934b2	0.05302877
125	0x3d8ca6ec	0.06867775
126	0x3eab0a27	0.33406183
127	0x3d92b4a7	0.07163363
128	0x3e2262ba	0.15857974
129	0x3d187475	0.037220437
130	0xbeea96e3	-0.45818242
131	0x3e04a29d	0.12952657
132	0xbd9eac4a	-0.07747705
133	0x3c51af87	0.012798197
134	0x3d8e41be	0.06946133
135	0x3b1fcb75	0.0024382744
136	0xbe12923e	-0.143136
137	0xbe0812ba	-0.13288394
138	0x3cbba969	0.02290793
139	0xbcd2cc06	-0.025732052
140	0xbc6e841f	-0.014557867
141	0xbda1193d	-0.07866142
142	0x3dc21a60	0.09477687
143	0x3c162955	0.009165128
144	0xbe9d0a23	-0.30671796
145	0xbe1c402f	-0.15258859
146	0xbdc00bff	-0.09377288
147	0xbe3e33b8	-0.18574417
148	0x3e609808	0.21932995
149	0x3dadc72e	0.08485256
150	0x3dbab067	0.09115677
151	0xbd725ca1	-0.05917037
152	0x3e15a54e	0.1461384
153	0x3d7cfa66	0.061762236
154	0x3dbda534	0.092600256
155	0x3e041f33	0.12902527
156	0x3e30bf66	0.17260513
157	0xbdf19a74	-0.11797038
158	0x3d536c08	0.0516167
159	0xbd605558	-0.05476889
160	0x3d566312	0.052340575
161	0x3e6273e3	0.2211452
162	0xbd90b8c1	-0.07066489
163	0x3e6197e2	0.22030595
164	0x3e440d12	0.19145611
165	0x3b81794c	0.0039512273
166	0xbe346f65	-0.17620619
167	0x3e618dff	0.22026823
168	0xbe67d57e	-0.22640035
169	0xb9b1402b	-0.0003380788
170	0x3e07190a	0.13193145
171	0x3e4879be	0.19577691
172	0xbe3308de	-0.17483851
173	0x3e133bd2	0.14378288
174	0x3e0e752c	0.13911885
175	0xbc513cae	-0.012770815
176	0x3e0472fd	0.1293449
177	0xbd18e699	-0.03732929
178	0x3de3420c	0.11096582
179	0x3d16d596	0.036824785
180	0x3e31ba6e	0.17356274
181	0x3dd38e30	0.103298545
182	0xbd7cba16	-0.061700903
183	0xbe12a757	-0.14321648
184	0xbded000b	-0.11572274
185	0x3e2ff1f0	0.17182136
186	0xbd83ec13	-0.06441512
187	0xbc8253f0	-0.015909165
188	0x3cb6b319	0.022302197
189	0x3d642353	0.05569775
190	0xbdc0b584	-0.09409621
191	0xbd2a6e3d	-0.041609038
192	0xbdc62ba8	-0.096762955
193	0x3d94aff1	0.07260121
194	0xbe0e3a85	-0.13889511
195	0xbd44f732	-0.048087306
196	0x3cef66b3	0.029223775
197	0xbd154fc3	-0.03645302
198	0xbe046a8e	-0.12931272
199	0x3e0cb124	0.13739449
200	0xbdca7178	-0.09884924
201	0x3cd4524d	0.02591815
202	0xbd68d270	-0.056841314
203	0x3d091468	0.033466727
204	0x3e1bb4ca	0.15205684
205	0xbd2dbc0f	-0.042415675
206	0x3e3a594f	0.18198131
207	0x3d9353f9	0.07193751
208	0xbe3b95af	-0.18318819
209	0xbddc6c90	-0.10762894
210	0x3e1fab2c	0.1559264
211	0x3d3cc83d	0.0460894
212	0x3db3138e	0.08743964
213	0xbe2206d2	-0.15822914
214	0xbdbf104b	-0.093292795
215	0x3e3292b3	0.17438774
216	0xbdb5c2f8	-0.08875078
217	0x3d49ae15	0.049238283
218	0xbe858a7b	-0.26082215
219	0xbd211087	-0.039322402
220	0x3e536a01	0.20645906
221	0x3dab6ac9	0.08369977
222	0xbd9e06a6	-0.07716112
223	0x3e0f8c4c	0.14018363
224	0x3e2f9b59	0.17149104
225	0x3e0f07cb	0.13967817
226	0x3e671470	0.2256639
227	0xbcd08a9e	-0.025456723
228	0xbc7e86a9	-0.015535035
229	0x3da99392	0.082801
230	0x3e44984c	0.19198722
231	0x3e639e04	0.22228247
232	0xbe4ef6cb	-0.20211332
233	0xbc88a39b	-0.016679576
234	0xbddc3d58	-0.10753888
235	0x3d43e903	0.04782964
236	0xbde2ecce	-0.11080323
237	0x3ca3fe92	0.02001885
238	0x3d02bbbd	0.031917322
239	0x3e1bd117	0.1521648
240	0xbc73d094	-0.014881272
241	0xbd935b36	-0.071951315
242	0xbdf57731	-0.119856246
243	0x3cf43c06	0.029813778
244	0xbdede2f7	-0.11615556
245	0xbe0bdcfe	-0.1365852
246	0x3d842bd3	0.06453671
247	0x3daa484d	0.083145715
248	0x3e65c4c5	0.22438343
249	0x3d3afca1	0.045651082
250	0xbe21f826	-0.15817317
251	0xbe230b1c	-0.15922207
252	0xbd515c74	-0.05111356
253	0x3e31a3bc	0.17347616
254	0x3dec2f2a	0.11532433
255	0x3d80ac57	0.06282871

lstm.bias_ih_l0 f4 [100]
0	0x3e0354ec	0.12825364
1	0xbd040069	-0.032226954
2	0xbe30e355	-0.1727422
3	0xbda1dbbc	-0.07903239
4	0xbd4e5400	-0.050373077
5	0xbc96ee5e	-0.01842421
6	0x3e5b71b7	0.21430098
7	0xbd01b805	-0.031669635
8	0x3e679d7d	0.22618671
9	0xbdf1081e	-0.11769126
10	0x3dd7a544	0.10529569
11	0x3e08fe99	0.13378371
12	0x3d0fa76d	0.03507178
13	0xbc96a8f6	-0.018391114
14	0x3e907b21	0.2821894
15	0x3d9c686d	0.07637105
16	0xbd504b87	-0.05085328
17	0xbcbdb631	-0.023158165
18	0x3de5fc15	0.112297215
19	0x3ca76b98	0.020437047
20	0xbdd9c870	-0.106339335
21	0x3da724c2	0.08161308
22	0xbca69cd7	-0.020338459
23	0x3e052327	0.13001691
24	0x3d25eb6f	0.04050773
25	0x3e628e50	0.221246
26	0xbd9d1a97	-0.07671087
27	0x3d81c7d7	0.063369446
28	0x3d55b545	0.052174825
29	0x3e1b2ce4	0.15153843
30	0x3df3d966	0.119067
31	0xbd679769	-0.05654088
32	0xbe53a4fe	-0.20668408
33	0x3e36376c	0.1779458
34	0xbdafbb1b	-0.085806094
35	0x3e3afd7b	0.18260758
36	0x3d67aa39	0.05655882
37	0xbce44225	-0.027863571
38	0xbe13a3c5	-0.14417942
39	0x3e391177	0.18073069
40	0x3e14d5df	0.1453471
41	0x3db043c9	0.08606679
42	0x3e24b33a	0.16083995
43	0xbd14e8f6	-0.03635498
44	0xbdb27264	-0.087132245
45	0xbdb15d33	-0.086603545
46	0x3da4cc24	0.08046749
47	0xbd3808a3	-0.04493011
48	0x3e5d56dd	0.21615167
49	0xbe3d73c4	-0.18501192
50	0xbd2cab98	-0.042155832
51	0xbdc7626d	-0.0973557
52	0xbd95a5b4	-0.07306996
53	0xbe009a27	-0.12558804
54	0xbe46bcc3	-0.19407944
55	0x3cc6f3d1	0.024286183
56	0x3e156809	0.14590468
57	0xbc9353d1	-0.017984303
58	0x3d6aa2ca	0.057284154
59	0x3df43735	0.119245924
60	0xbe37b1be	-0.17938897
61	0xbe105c25	-0.1409765
62	0xbbf6c337	-0.0075305956
63	0xbda50372	-0.08057298
64	0x3d47d709	0.048789058
65	0x3ce2a1ee	0.027665105
66	0xbc3ae4bd	-0.0114070745
67	0xbcd0356f	-0.025416104
68	0xbd964699	-0.07337684
69	0x3d692705	0.056921978
70	0xbda720eb	-0.081605755
71	0x3da5db14	0.080984265
72	0x3c6abbdc	0.014327016
73	0xbe03eb38	-0.12882698
74	0x3e41b545	0.18916805
75	0x3d21cfbe	0.03950476
76	0x3d2c8ba5	0.042125363
77	0x3dae16bb	0.08500429
78	0x3e60a5d3	0.21938257
79	0x3da8c2ea	0.08240302
80	0x3e0fb50b	0.14033906
81	0x3d308338	0.04309389
82	0xbbe937c7	-0.007117245
83	0x3e2f9edb	0.17150442
84	0xbde36058	-0.111023605
85	0x3e0e9ac7	0.1392623
86	0xbe136a39	-0.1439599
87	0x3e24025e	0.16016528
88	0xbd85cace	-0.065328225
89	0xbd235811	-0.03987891
90	0xbe1388ec	-0.144077
91	0xbe00c74a	-0.12576023
92	0x3d4a36ce	0.049368672
93	0x3e7ae6eb	0.2450215
94	0x3e30d489	0.17268576
95	0xbdaf4201	-0.08557511
96	0x3e45f5c9	0.19332041
97	0x3d553619	0.052053545
98	0x3da79aa9	0.08183796
99	0x3e09ded7	0.13463913

lstm.bias_hh_l0 f4 [100]
0	0xbdce4fae	-0.100737914
1	0x3e0c233b	0.13685314
2	0xbe8bd594	-0.27311385
3	0xbd998705	-0.07496456
4	0xbd1d074c	-0.038337037
5	0xbda43477	-0.080178194
6	0x3e8a721b	0.2704018
7	0x3d60e306	0.054904006
8	0xbe12b090	-0.14325166
9	0x3d29ff64	0.041503325
10	0xbe1b3a30	-0.15158916
11	0xbb274b0c	-0.002552691
12	0x3daf9cdb	0.0857484
13	0x3e4e31c8	0.20136178
14	0x3daba8de	0.08381818
15	0x3e88bda8	0.26707196
16	0xbdb47298	-0.088109195
17	0xbc081cf4	-0.008307684
18	0x3df0be99	0.117551036
19	0x3ca9d0db	0.020729473
20	0xbde53ab9	-0.11192841
21	0x3e079b80	0.13242912
22	0x3e245962	0.16049722
23	0x3e2557f5	0.16146834
24	0xbbbff530	-0.005858086
25	0x3d408461	0.047001246
26	0xbbc4fdf2	-0.006011718
27	0x3d3fd263	0.0468315
28	0xbdb4f4c1	-0.088357456
29	0xbdd5261b	-0.10407659
30	0x3d800738	0.06251377
31	0x3e912d01	0.28354648
32	0x3d089832	0.03334827
33	0xbbfa6677	-0.0076416093
34	0xbdf54e9c	-0.11977884
35	0x3e886b6d	0.2664446
36	0xbc6bd72b	-0.014394562
37	0x3d9134c6	0.07090144
38	0xbe2332d1	-0.15937354
39	0x3e20854c	0.15675849
40	0xbd276a0f	-0.04087263
41	0xbe1a0d8f	-0.15044235
42	0x3e5ed44b	0.21760671
43	0x3d96fb99	0.07372207
44	0xbc651d17	-0.013983986
45	0x3e0d1460	0.13777304
46	0x3df0dfdc	0.11761448
47	0xbdad2cd0	-0.08455813
48	0xbdc06c18	-0.09395617
49	0x3dcc9bb2	0.09990634
50	0xbdd467b7	-0.103713445
51	0xbdd43529	-0.10361702
52	0xbe24a8ad	-0.1607997
53	0xbcf5af87	-0.029990925
54	0x3e259e6c	0.16173714
55	0x3cec2318	0.028825328
56	0x3dd0b78a	0.10191257
57	0xbd281c8f	-0.04104286
58	0x3d73e139	0.05954096
59	0x3e568dd3	0.20952539
60	0x3e2a8f0b	0.16656129
61	0xbe3e03f0	-0.1855619
62	0x3dc9e13e	0.09857415
63	0x3e4e3475	0.20137198
64	0x3dd109da	0.10206957
65	0xbd2be467	-0.04196587
66	0xbd869808	-0.065719664
67	0x3ce82060	0.02833575
68	0xbcc3810b	-0.023865243
69	0xbd348042	-0.04406763
70	0x3e0323c3	0.12806611
71	0x3c08757b	0.008328791
72	0xbd640d8b	-0.055676978
73	0x39ea6f5e	0.00044714933
74	0xbe03bcb5	-0.12864955
75	0xbd1f20ce	-0.038849644
76	0x3e99d487	0.30044958
77	0xbc9b042f	-0.018922893
78	0x3d8a28a0	0.0674603
79	0xbd89b37e	-0.067236885
80	0x3d8e84a5	0.06958894
81	0x3d4198ea	0.04726497
82	0xbdda9c8a	-0.10674389
83	0xbc67d24b	-0.014149259
84	0xbdbeef3d	-0.09322975
85	0x3d207d83	0.039182197
86	0x3e05a3bf	0.13050745
87	0x3e315475	0.17317374
88	0xbc0cd400	-0.008595467
89	0xbc99dea0	-0.018782914
90	0x3da90783	0.08253386
91	0x3dbf7da6	0.093501374
92	0x3dedf2d6	0.11618583
93	0xbdc463d9	-0.09589357
94	0x3dd60acd	0.10451279
95	0x3e324c73	0.17411976
96	0x3e1eb725	0.15499552
97	0xbe47ecac	-0.19523877
98	0xbe23a993	-0.15982656
99	0xbd894e3f	-0.067043774

bn1.weight f4 [25]
0	0x3f8118ec	1.008573
1	0x3f764e87	0.96213573
2	0x3f813942	1.0095599
3	0x3f7f9fc2	0.99853146
4	0x3f7ff94e	0.99989784
5	0x3f8ccc16	1.0999782
6	0x3f7db065	0.9909728
7	0x3f78383d	0.9696081
8	0x3f7ee060	0.9956112
9	0x3f823f76	1.0175617
10	0x3f7d4d8a	0.9894644
11	0x3f82db33	1.0223144
12	0x3f7d459b	0.98934335
13	0x3f859fc9	1.0439388
14	0x3f7f357b	0.9969098
15	0x3f7c4bc9	0.9855314
16	0x3f7f6512	0.99763596
17	0x3f798105	0.97462493
18	0x3f713ed0	0.9423647
19	0x3f8350a9	1.025899
20	0x3f795067	0.9738831
21	0x3f7bd055	0.98364764
22	0x3f7df90e	0.9920815
23	0x3f7994e8	0.9749284
24	0x3f847a2b	1.0349783

bn1.bias f4 [25]
0	0xbb0f89f3	-0.0021902293
1	0x3a9617d7	0.0011451197
2	0x3b45d826	0.003018865
3	0xbac93e95	-0.0015353734
4	0xbb35b59c	-0.0027726656
5	0x3b1745da	0.0023082406
6	0x3914019f	0.00014114984
7	0xb9bdd914	-0.00036210625
8	0xba6fd516	-0.0009148879
9	0x3b5e7573	0.0033944517
10	0x3b22a2e7	0.0024816336
11	0x3b7152d7	0.0036823058
12	0x3b163224	0.002291807
13	0xbac080c7	-0.0014686816
14	0x3a45b6eb	0.00075422105
15	0xbb131e28	-0.0022448394
16	0xb891c0a2	-6.9500195e-05
17	0xbaf0735c	-0.0018344927
18	0xbac2fdc1	-0.001487665
19	0xba4b06dd	-0.0007744858
20	0x370e1771	8.469317e-06
21	0x3b475da0	0.0030420795
22	0xbb467862	-0.0030284156
23	0xba97687e	-0.0011551527
24	0xb9e04192	-0.00042773463

bn1.running_mean f4 [25]
0	0xbeb70bf1	-0.35751298
1	0xbf1a11d7	-0.6018347
2	0x3c8cd9fc	0.017193787
3	0xbe350e46	-0.17681226
4	0xbdaa370a	-0.08311279
5	0xbdca3165	-0.098727025
6	0x3edb4881	0.42828754
7	0xbc3b95bb	-0.011449273
8	0xbe8ce7a0	-0.27520466
9	0x3e1d0075	0.15332206
10	0xbe81220e	-0.25221294
11	0x3d413600	0.04717064
12	0x3ebd36e1	0.36955932
13	0x3e3df0d0	0.18548894
14	0x3e9f687c	0.31134403
15	0x3d29cd91	0.04145581
16	0x3d4a513e	0.049393885
17	0x3dc12476	0.094307825
18	0xbeba2fce	-0.36364597
19	0x3ec2f875	0.38080183
20	0x3ed70af3	0.4200054
21	0x3ed000bb	0.40625557
22	0x3cc47963	0.023983663
23	0x3ebcf5eb	0.3690637
24	0x3e61ea48	0.22062027

bn1.running_var f4 [25]
0	0x3bee10f2	0.0072652036
1	0x3c565382	0.013081433
2	0x3abadd9b	0.0014256717
3	0x3b8f77d6	0.004378299
4	0x3b981fa8	0.0046424456
5	0x3b1a3d1b	0.0023534957
6	0x3c2e4e54	0.010638792
7	0x399da61a	0.0003006913
8	0x3d0aca0a	0.033884086
9	0x39f1ded6	0.00046133128
10	0x3bf8615f	0.007579967
11	0x3da7c056	0.08190982
12	0x3b83c895	0.004021714
13	0x39ebdfc4	0.0004498941
14	0x3b909401	0.0044121747
15	0x3e0be8c7	0.13663016
16	0x3a7a89a6	0.00095572544
17	0x3c2ead9e	0.010661511
18	0x3ced0e59	0.028937506
19	0x3cd6d2b4	0.026223518
20	0x3b9c7515	0.0047746995
21	0x3b5fe736	0.0034164912
22	0x3aa3f49e	0.0012508815
23	0x3c2051fe	0.009785173
24	0x3aad6fa3	0.0013232123

fc.weight f4 [2, 25]
0	0x3e2f151b	0.17097895
1	0xbe0b3212	-0.13593319
2	0xbe42488b	-0.18972985
3	0x3c9c41c0	0.01907432
4	0x3e1762b9	0.14783753
5	0xbdf1e52d	-0.1181129
6	0x3cb71c2f	0.022352306
7	0x3d59990a	0.053124465
8	0x3c812a92	0.01576737
9	0xbe4699cd	-0.19394608
10	0xbe2f0736	-0.17092595
11	0xbe4e231f	-0.20130585
12	0xbe0a1bb2	-0.13487127
13	0x3d0dcc7e	0.034618847
14	0x3cfa117d	0.030525917
15	0x3e389ef4	0.18029386
16	0x3da7a61c	0.0818598
17	0x3d660388	0.05615571
18	0x3e4c0141	0.19922353
19	0x3dbd4942	0.092424884
20	0x3d695de6	0.056974314
21	0xbe26f0c0	-0.16302776
22	0x3e30e0ff	0.17273329
23	0x3cf64706	0.030063163
24	0x3d7c98dd	0.06166922
25	0xbc26e9b3	-0.010187554
26	0xbdba8a53	-0.091084145
27	0x3e066bde	0.13127086
28	0xbe4a0f50	-0.19732404
29	0xbdbf421f	-0.093387835
30	0x3e202661	0.1563964
31	0x3dc18e9e	0.0945103
32	0x3d267fe5	0.040649313
33	0xbdd15da2	-0.10222937
34	0x3e1fca13	0.15604429
35	0x3ce9d425	0.028543541
36	0x3e300ecb	0.17193143
37	0x3d8b3c75	0.06798641
38	0xbe4a71e4	-0.19770008
39	0x3e49a1a2	0.19690564
40	0x3d386e14	0.045026854
41	0x3e2fef09	0.17181028
42	0xbe13df9e	-0.14440772
43	0x3e1132fa	0.14179602
44	0x3d9b00dc	0.07568523
45	0x3db63ad9	0.08897943
46	0x3e328cfa	0.17436591
47	0xbde95f63	-0.11395147
48	0xbdec2154	-0.11529794
49	0x3d92c712	0.07166876

fc.bias f4 [2]
0	0x3e1a55d5	0.15071805
1	0x3e4ef492	0.20210484

bn2.weight f4 [2]
0	0x3fbaab55	1.4583536
1	0x3fb77abd	1.4334332

bn2.bias f4 [2]
0	0xbd07316d	-0.03300612
1	0x3d073169	0.033006106

bn2.running_mean f4 [2]
0	0x3e15c4f4	0.14625913
1	0x3e526c7e	0.20549199

bn2.running_var f4 [2]
0	0x3cdc32bd	0.026879663
1	0x3e3854e8	0.18001139
