Result/LSS_LSTM_0_1_FR/latest.pth (torch, 20798 bytes, 14 tensors)

lstm.weight_ih_l0 f4 [100, 13]
000000 cb d0 3e be 0a f7 20 3e 79 29 1a be 1d 55 d7 bc
       -0.18634336 0.15719238 -0.15054883 -0.026285702
000010 ea ad 0a 3e 17 08 18 bc 56 d9 13 3e 8c 48 22 bd
       0.13542905 -0.0092792725 0.14438376 -0.039619967
000020 e4 8a b5 3d b8 42 92 3e e4 07 3c 3e a4 24 f6 3d
       0.08864382 0.28566527 0.18362385 0.120187074
000030 0f f2 56 3e 33 dd 5f 3c fa 2e 31 3d ec f1 ba bb
       0.20990776 0.013663578 0.04325769 -0.005705109
000040 16 4b 11 be 3c a0 e1 bc 23 40 97 3d be 07 d3 3d
       -0.141888 -0.027542226 0.0738528 0.10304211
000050 ef 2e 80 bd 2f 29 5b 3e a7 7a ae bd 35 bf 6b 3d
       -0.06258952 0.21402429 -0.08519488 0.057555396
000060 f3 7d ec 3e e8 68 bb bd 5a 9a 01 3e e8 e0 2b be
       0.46189842 -0.09150869 0.12656537 -0.16785014
000070 c3 9a a2 be 95 08 c5 bc b6 d9 3b be c4 6f ba bd
       -0.317587 -0.024051944 -0.18344769 -0.09103349
000080 8f 02 95 be 89 f0 3d bf a3 6e 22 3e b8 09 55 be
       -0.29103515 -0.7419515 0.15862517 -0.20804489
000090 52 22 38 3d bc ea 13 3e 2f 26 4b be 5e a2 93 3d
       0.044954605 0.14445013 -0.19838785 0.072087035
0000a0 68 0e f1 bd bf f9 d4 bd 67 c6 cf 3d 35 af 69 3e
       -0.11770326 -0.10399198 0.10145264 0.22820742
0000b0 49 2c 10 be f6 56 cb 3c d4 a2 4b 3e f2 10 f2 bd
       -0.14079393 0.02482174 0.19886333 -0.11819638
0000c0 87 13 dc bc 95 50 fa 3d 26 fe 57 bd 0a 86 27 be
       -0.02686478 0.12222401 -0.05273261 -0.16359726
0000d0 ab 16 89 be 7b 07 6f 3e fc f4 88 bc 83 4e 48 be
       -0.26775107 0.23342697 -0.01671838 -0.195612
0000e0 20 c2 d6 bd b4 95 0f 3e 94 65 f0 bb 98 05 90 be
       -0.10486245 0.14021951 -0.007336328 -0.28129268
0000f0 66 5d 34 bc 2a d4 ad be f1 68 1a be 1b 65 98 bd
       -0.011008596 -0.3395093 -0.15079094 -0.07441159
000100 38 b0 86 be 83 b1 c3 be fe 61 e6 bd af 58 97 be
       -0.2630632 -0.38221368 -0.11249159 -0.29559848
000110 06 22 3a be 67 93 30 be 0e ff 74 be de 8c 0e be
       -0.18177041 -0.1724373 -0.2392542 -0.13920924
000120 b5 45 1c be 97 c9 cd 3d ad 70 a4 be fe 5b 66 3e
       -0.15260966 0.10048216 -0.32117215 0.2249603
000130 4f 75 5d be 59 a8 e1 bd 69 6f e7 bd c3 36 39 bc
       -0.21626781 -0.11018438 -0.11300547 -0.01130456
000140 38 af 9a 3c 88 13 a3 3c 87 b2 9b 3e 61 22 0b 3e
       0.018882379 0.019906774 0.30409643 0.13587333
000150 54 48 cc 3d 20 95 49 3e 23 63 0d 3e 4d 83 30 3e
       0.09974733 0.19685793 0.13807349 0.17237587
000160 6c f5 ee bd ce 2e 48 bb d1 26 53 3e c6 58 21 3d
       -0.11667904 -0.0030545476 0.20620276 0.0393913
000170 5b d2 3e 3d dc 85 b3 3a c6 9e 24 be fa 7f cb bd
       0.04658733 0.0013696509 -0.16076192 -0.09936519
000180 08 6f d8 bd 31 34 1b be 70 84 4e be 14 6c 85 bd
       -0.105680525 -0.15156628 -0.20167708 -0.06514755
000190 8a b7 97 be 38 cf 89 bc cf c0 90 bc 9a e6 20 3e
       -0.29632217 -0.016822442 -0.017670063 0.15712968
0001a0 b3 97 34 bc 37 eb 0d bd bf 2c 98 3d 45 f8 e0 3d
       -0.011022496 -0.034648146 0.0743041 0.10984854
0001b0 27 d2 69 3e 47 a4 59 3d 89 75 04 bc db 41 86 3e
       0.22834073 0.053135183 -0.008084663 0.2622212
0001c0 8f 8c fd bd db 79 92 3e 91 59 95 3d e2 f3 17 3e
       -0.12380325 0.28608593 0.07292474 0.14839128
0001d0 de 72 28 3e 4c 26 32 3e 1d 36 40 3d 86 b4 c9 3d
       0.16450068 0.17397422 0.046926606 0.09848885
0001e0 30 59 66 3d f7 21 b4 bd 01 7d 23 3e d1 cc cb 3d
       0.0562374 -0.08795541 0.15965654 0.09951175
0001f0 03 e9 4a 3b fa 89 c7 bd c5 70 48 3e 3f 08 9a bd
       0.003096164 -0.09743114 0.19574268 -0.07521104
000200 5c 1c c9 3d ac 89 00 3e 40 40 a6 3e c9 ab c0 3d
       0.09819862 0.12552518 0.32470894 0.094077654
000210 2b 50 70 be 1b 73 92 bd 40 14 8f be be c4 99 bd
       -0.23468082 -0.07150861 -0.27945137 -0.07508229
000220 6d 78 b5 3c d5 21 0a bd 28 a8 71 3d 41 6d 96 be
       0.02215215 -0.03372367 0.058998257 -0.2938023
000230 42 4e db 3d ec f0 2e be 4a 75 88 3e 5a 53 a6 3d
       0.10708286 -0.17084092 0.26651984 0.08121367
000240 fc 64 91 bd 55 1e 14 3e 97 b6 9a 3d 45 d8 b4 3d
       -0.07099339 0.14464696 0.075543575 0.08830313
000250 16 b4 13 3d 85 e9 88 bb 86 77 a0 3e 16 77 be bc
       0.036060415 -0.0041782283 0.3134119 -0.023250144
000260 33 f7 e4 3e 29 69 9d 3b ff 0d 71 3e 76 9d 52 3d
       0.44719848 0.004803796 0.23540495 0.051419698
000270 dd 38 a6 bd 65 a5 2a 3e f8 c1 0e 3e 79 d6 41 3e
       -0.081163146 0.16664656 0.1394118 0.18929471
000280 69 c6 a4 bc b6 3b 2d 3e f2 2f b9 3d 75 25 92 3c
       -0.02011414 0.16917309 0.09042348 0.017840127
000290 81 8f aa bc c9 da 12 bd cd 1e 8b 3d 4b 92 1a 3e
       -0.020820381 -0.03585318 0.06792984 0.15094869
0002a0 98 7f df 3d c6 5f 91 3d ca 1e 81 be 5c 14 ef bd
       0.109130085 0.070983455 -0.25218803 -0.11673805
0002b0 9a 3d 13 3d d3 9f 72 3e 6d 43 2d be f4 e1 74 be
       0.03594742 0.2369378 -0.16920252 -0.2391432
0002c0 b6 79 57 be 7b 03 13 3e 31 13 ee bd 3e 39 8e b9
       -0.21042523 0.14356796 -0.11624754 -0.00027127
0002d0 c4 29 f1 bc c9 b8 51 3d c4 14 ab 3d d7 1b 73 3e
       -0.02943886 0.051201615 0.0835357 0.23741089
0002e0 2c fa 1d be 83 40 34 be 55 a6 87 3e 39 20 0b be
       -0.15427464 -0.17602734 0.2649409 -0.1358651
0002f0 2e e3 68 3d 69 4b 25 3e e9 99 25 3d dd aa d3 3d
       0.05685728 0.16142048 0.040429983 0.10335324
000300 d5 de dc 3d bb 0a f5 3c a5 88 5d be f6 50 dd 3d
       0.10784689 0.029912343 -0.21634157 0.10806458
000310 7c 05 21 bd ad 5b 83 3e 2c 16 b7 bd 09 8a 0e bc
       -0.03931187 0.2565588 -0.08939776 -0.008699902
000320 50 c7 7a bd eb 2f 6d 3d 13 13 88 3e 31 f8 a8 3e
       -0.061225235 0.057907026 0.26577052 0.33001855
000330 b4 60 7e 3e 81 0a 0f 3b c8 86 67 3d 1d 91 78 bb
       0.24841577 0.002182633 0.05652502 -0.003792829
000340 43 f4 42 be b8 80 02 be 29 5c 15 bd 8f f3 c4 3d
       -0.19038491 -0.12744415 -0.036464844 0.096167676
000350 2e 8e 6d bd 9f 3f c6 bd fa 43 ec 3e c1 aa 90 be
       -0.05799692 -0.096801035 0.46145612 -0.28255275
000360 6b a5 24 bc e4 34 77 3e eb 89 dd 3d 8c d8 86 bd
       -0.010049204 0.2414127 0.108173214 -0.06584272
000370 ae 4d 67 be c1 3c 98 be 9f ed 5c 3e c9 ee d5 bd
       -0.22588226 -0.29733852 0.2157502 -0.10445935
000380 d5 54 ea be 51 45 27 3e 19 17 75 bc 4e b1 19 be
       -0.45767847 0.16335036 -0.01495912 -0.15009043
000390 cc 24 6d be 86 50 2b 3e 0f 99 e0 be 0e da ca 3d
       -0.23158568 0.16729936 -0.43866774 0.09904872
0003a0 1b d5 2c be 33 ed cd 3d 40 c1 65 be c0 59 8e 3e
       -0.16878168 0.10055008 -0.22437 0.2780285
0003b0 1e 94 ab bd 41 62 25 3c 31 5a 7d 3e 7b 74 2f 3e
       -0.083778605 0.010094226 0.24741437 0.17134278
0003c0 a6 91 30 3e 8e 13 af 3d 21 a5 ea bc f9 03 87 3e
       0.1724306 0.08548652 -0.028643193 0.26370218
0003d0 65 3b 89 bc 19 1b 68 3e ec d6 43 bd f0 71 f7 3b
       -0.016751954 0.22666587 -0.047812387 0.007551424
0003e0 cb 78 c3 bd 68 5e 3b 3e fb 46 3a 3e 98 30 e7 3d
       -0.09544524 0.18297732 0.1819114 0.112885654
0003f0 ff a3 b4 3e 32 18 15 3e 15 05 88 bd f7 22 2e 3e
       0.3528137 0.14560011 -0.06641594 0.17005526

lstm.weight_hh_l0 f4 [100, 25]
000000 0b f9 39 be ba ff 82 be 98 c8 14 bd 3e bb 3d 3e
       -0.18161409 -0.2558573 -0.036324114 0.18528458
000010 16 15 33 3e 29 88 22 3e 0d d7 82 3d d0 d6 e0 3d
       0.17488512 0.15872253 0.06388674 0.10978472
000020 2e 1c 40 bd 2b ae d3 bc 81 0e 50 bd 80 5f 31 3e
       -0.046901874 -0.025839886 -0.050795082 0.17321587
000030 93 91 03 3d 7c d6 18 3e a0 43 5e 3e 75 8b ea 3d
       0.032121252 0.1492557 0.21705484 0.114523806
000040 d7 92 c2 3d e0 b5 dd bd bb e1 cb bc 22 1a ee 3d
       0.09500664 -0.108257055 -0.02488791 0.11626078
000050 18 9a b5 3d 24 30 e8 bd 2e 82 07 be 98 93 30 3e
       0.08867282 -0.11337307 -0.13233253 0.17243803
000060 17 e2 e4 39 4f c5 18 be f1 c0 c2 bb 67 a5 65 3e
       0.00043656 -0.14919017 -0.0059434106 0.22426377
000070 c9 c9 30 3e 90 41 f6 3d 3c b2 52 be b6 a9 6d 3e
       0.17264475 0.12024224 -0.20575804 0.23209271
000080 dc eb 97 3d 19 c9 2f be 57 0a 5b bd 77 02 6d 3e
       0.074180335 -0.17166556 -0.053476658 0.23145472
000090 64 33 a3 3d 4e ad 5d 3d 53 08 b7 3e c6 82 52 3d
       0.07968786 0.054120354 0.35748538 0.051394247
0000a0 f5 65 8c 3e 8a c4 83 3d 95 99 ff 3c 45 31 a5 3c
       0.27421537 0.06433971 0.031201163 0.020165095
0000b0 50 1b 21 3e 7e de 0e be db 15 08 bc 8e 9b 5d be
       0.15733075 -0.13952062 -0.008305992 -0.2164137
0000c0 48 a8 a3 3e 3d 62 eb 3d e9 6e 2a be 24 ad 04 be
       0.31964326 0.11493347 -0.16643871 -0.12956673
0000d0 57 74 17 be e6 0e c5 3d 9c fc a9 3d 6d 7d 8f be
       -0.14790474 0.09621982 0.083001345 -0.2802538
0000e0 40 7e b7 bc c3 b4 b9 3d 57 7f 8d 3d ce e2 54 be
       -0.022399068 0.09067681 0.06909054 -0.20789644
0000f0 be d5 89 3c 05 4b 3f 3e 1a 33 c1 bd 13 d5 d1 3d
       0.016825553 0.18680961 -0.09433575 0.10245719
000100 29 89 03 3c 00 d0 17 be 36 f3 1b bb 3d bd cb be
       0.008028307 -0.1482544 -0.0023796088 -0.39792815
000110 40 88 20 3e 80 43 44 be f4 d9 6d 3e 42 2a 50 bd
       0.15676975 -0.19166374 0.23227674 -0.05082155
000120 28 ad fe be b5 33 09 be 49 74 90 3d 0f c5 0a 3e
       -0.49741483 -0.13398631 0.0705343 0.13551734
000130 30 cf 34 3e 9b 82 76 3d e5 14 4c bc aa 17 5a be
       0.17657161 0.06018315 -0.0124561535 -0.2129809
000140 4c 93 d3 bd 0c 87 dc 3d b9 ac 2b be be b9 cf 3d
       -0.10330829 0.10767946 -0.16765107 0.101428494
000150 f5 99 ee bb 27 b5 2a 3e 48 d0 c8 bd e9 15 ad 3d
       -0.0072815367 0.16670667 -0.098053515 0.08451445
000160 f0 24 f0 3d 36 34 99 3c 7f c7 7b 3c de 69 1b 3e
       0.11725795 0.018701654 0.015367388 0.15177104
000170 d3 0c ac 3b 46 26 0b be e2 40 79 be 4b 52 16 bc
       0.005250552 -0.13588819 -0.24341157 -0.009174894
000180 cd ea 9f 3d f9 ee 2b be f2 ee 71 3d 8b 4b ca bc
       0.078084566 -0.1679038 0.059065767 -0.024694225
000190 30 16 e7 bb 6d af 9e 3e 23 ab 8d bd 91 28 73 3e
       -0.0070522055 0.30993214 -0.06917407 0.23745944
0001a0 fa 54 ed 3e fb dc 50 be 2c 0f 71 3c a0 0a 16 be
       0.46353894 -0.20396797 0.01471309 -0.1465249
0001b0 84 e5 4c be 78 b8 a5 be e4 48 6a 3e 26 34 fa 3c
       -0.20009428 -0.323673 0.22879368 0.030542444
0001c0 02 62 8a be 38 9d cd bd fb 01 9d 3d d3 72 83 bd
       -0.270279 -0.10039753 0.07666393 -0.06418385
0001d0 53 e8 84 3e d7 57 38 3e fc 79 2c be 52 3d 7e be
       0.259585 0.18002258 -0.16843408 -0.2482808
0001e0 50 dc 0a be df cf 58 be 71 76 7f be c1 41 2f 3e
       -0.13560605 -0.21173047 -0.24947526 0.17114927
0001f0 8e 29 02 3d 4c 5d ea 3d 0c ea cf 3e 78 ab 05 3d
       0.03177791 0.11443576 0.4060825 0.03263423
000200 31 3d 27 3e 3f bd 97 3d 7d 72 3d bf 67 ad 1c 3e
       0.16331936 0.07409143 -0.7400282 0.15300523
000210 c1 06 36 bd b5 7f b8 3c 0f 5b b4 3b d3 e3 e8 3c
       -0.044440035 0.022521833 0.005504019 0.028428948
000220 86 33 29 be e0 fd 42 be e9 75 21 bc fe cf 9e bd
       -0.16523561 -0.19042158 -0.009854772 -0.07754515
000230 cc 78 ab bd 9b 61 30 bd 7f f6 02 3e 14 9b 9f 3c
       -0.083726496 -0.043061834 0.12789343 0.019483127
000240 c3 ef 99 be 35 c3 2f be 81 3f c2 bb 3f 3f 76 be
       -0.30065736 -0.1716431 -0.0059279804 -0.24047564
000250 d9 8c 5d 3e 56 b3 88 3d f3 78 48 3d ef ab eb bd
       0.2163576 0.066748306 0.04894347 -0.11507403
000260 96 1a 16 3e 32 df 93 3d 17 5d 9b 3d 94 25 81 3d
       0.14658579 0.072203055 0.07586115 0.063059956
000270 c6 fb 2c 3e e2 6b 02 be 1c 31 a6 3c bb f6 04 bd
       0.16892919 -0.12736467 0.020287089 -0.032461863
000280 4f 05 1e 3d 3f 2c 83 3e 7a b2 29 bc 75 aa 87 3e
       0.03857928 0.25619695 -0.010357494 0.26497236
000290 c0 9f 87 3e da 9c 0c 3d db f8 08 be 4c bd 4e 3e
       0.26489067 0.034329273 -0.13376181 0.20189399
0002a0 34 47 82 be d9 90 8a bc af a8 3e 3e 23 44 7d 3e
       -0.2544495 -0.016914772 0.18619035 0.24733023
0002b0 d9 c5 38 be a2 26 20 3e 0e e2 1e 3e 03 bc 14 bb
       -0.18044223 0.15639737 0.1551592 -0.0022695072
0002c0 16 2f f9 3d 50 8b 61 bd c1 1e a6 3d 4e 5a 20 bd
       0.12167184 -0.0550645 0.081113346 -0.03914862
0002d0 a3 d8 30 3e fe 9b d8 3d c0 60 86 bd 94 51 29 be
       0.1727014 0.10576628 -0.06561422 -0.16535026
0002e0 91 25 be bd 40 41 ed 3d d2 62 0b be d9 4f 25 3c
       -0.09284509 0.11584711 -0.13611916 0.010089838
0002f0 3f d7 4c 3d ea 08 aa 3d fb 24 f5 bd 71 44 29 3b
       0.050009962 0.083024815 -0.11969944 0.0025828148
000300 6c 9d 32 3b d0 3e 20 3d b8 0e ea bd f7 86 62 bc
       0.0027254475 0.039122403 -0.11428589 -0.013826123
000310 a0 34 66 3d c2 86 87 bc 95 9a 12 be 24 81 1e 3e
       0.05620253 -0.01654375 -0.14316781 0.1547895
000320 94 84 0a be 6e 00 96 bb a0 2d 2d bd d0 de 20 bb
       -0.13527137 -0.004577688 -0.04227984 -0.002454687
000330 fa 71 02 3e 92 36 01 be 6c df 80 3e 82 e7 56 3d
       0.12738791 -0.12618473 0.25170457 0.052466877
000340 a6 eb 6f be 2f 44 a4 bd 92 d4 e7 3d a8 cf ec 3d
       -0.23429736 -0.080208175 0.113198414 0.11563045
000350 c3 2b dd 3d 28 84 07 be f9 08 4a bd e6 f9 5b 3e
       0.107993625 -0.13234007 -0.049324963 0.21482047
000360 68 63 af bd 9a 01 de 3d 2b bb a6 be c7 55 1b 3c
       -0.08563882 0.10840149 -0.32564673 0.0094809
000370 4a fa 73 3e 1a 3b 0c 3e 6a 24 7b bd 73 8b 45 3e
       0.23825946 0.1369442 -0.061314024 0.19291477
000380 9b f1 5b 3e 7a 69 19 3e 02 3b 7b 3e 94 00 1f bc
       0.21478884 0.14981642 0.24534228 -0.009704728
000390 71 1d 46 bc cf 0f a9 3d 77 a8 4e 3e c8 11 5a 3e
       -0.01209198 0.082549684 0.20181452 0.21295846
0003a0 a4 58 43 be 21 ed ef 3b 94 37 91 bd ee b7 4b 3d
       -0.19076782 0.007321969 -0.07090679 0.049735956
0003b0 c8 3b e5 bd d1 e3 cf 3c ce 1a 89 3c 89 c1 2d 3e
       -0.11193043 0.025377186 0.016736414 0.16968359
0003c0 ba d6 b5 bc 22 55 ae bd 9a 64 f8 bd c7 f0 e3 3c
       -0.022197116 -0.085123315 -0.12128563 0.027824773
0003d0 3a 7e 06 be 77 8a 09 be b9 b0 80 3d c8 d4 a6 3d
       -0.13134089 -0.13431726 0.06283707 0.081460536
0003e0 ee 90 51 3e fb 8c e7 3c f7 e9 21 be 96 fc 26 be
       0.20465443 0.028265467 -0.15811907 -0.16307291
0003f0 69 86 b8 bb 42 51 66 3e 4f fc 1a 3e 6d 38 2f 3d
       -0.0056312573 0.22491935 0.1513531 0.04277842

lstm.bias_ih_l0 f4 [100]
000000 f4 e3 e2 3d cf 81 18 bd f2 15 5e be 7d 86 8e bd
       0.11078635 -0.03723317 -0.21688059 -0.06959245
000010 f6 fe df bd be ef 37 bd ec 58 82 3e 45 0d 95 bc
       -0.10937302 -0.04490637 0.25458467 -0.018194804
000020 60 8b 81 3e 05 6c db bd a2 00 ca 3d 1c 31 03 3e
       0.25301647 -0.107139625 0.09863402 0.12811702
000030 95 8e 10 3d 71 b6 0f bd 69 82 9d 3e 8e e2 e6 3d
       0.035292227 -0.0350861 0.30763558 0.112736806
000040 13 6f 0b bd 5f b6 11 bd 2f 9a ec 3d 8f 31 af 3d
       -0.034041476 -0.035574313 0.11552846 0.085543744
000050 9a be d2 bd c0 dd b9 3d dc e9 6e 3c 3c 3a fb 3d
       -0.102902606 0.090754986 0.014582124 0.12266967
000060 79 7c 30 3d 5c f5 63 3e d5 ee a5 bd 57 ab d3 3d
       0.043087456 0.22261566 -0.08102194 0.10335415
000070 50 b6 79 3d 09 45 15 3e 34 35 22 3e b8 a4 07 bc
       0.060964882 0.14577116 0.15840608 -0.008279018
000080 4a 4b 51 be c8 9c 5c 3e 12 b7 89 bd d0 fd 36 3e
       -0.20438877 0.21544182 -0.06724371 0.1787026
000090 21 ee 75 3d c6 5c 90 bc 77 a7 1e be 7d 30 57 3e
       0.06004155 -0.017622363 -0.1549357 0.2101459
0000a0 fd af 3e 3e 3a 4d cd 3d e8 e5 2c 3e 10 49 61 bc
       0.18621822 0.100244954 0.16884577 -0.01375033
0000b0 8f 49 58 bd 3d 96 a7 bd e2 1a c6 3d 00 18 de 3c
       -0.052804526 -0.081829526 0.09673096 0.027111053
0000c0 7c 36 61 3e e7 32 3a be cc 90 e6 bc f3 cb d7 bd
       0.2199344 -0.1818348 -0.028145216 -0.10536947
0000d0 ed 84 73 bd 34 2b f3 bd d8 6f 48 be d5 6d ee 3c
       -0.05945294 -0.11873475 -0.19573915 0.029105106
0000e0 dd 58 14 3e de 10 05 bc b5 0c 9b 3d ba 58 0b 3e
       0.14487024 -0.008121697 0.07570783 0.13608065
0000f0 6a e8 2b be e3 ee 16 be f9 59 da bb 6a e1 b3 bd
       -0.16787878 -0.14739566 -0.0066635576 -0.08783229
000100 65 43 3e 3d f6 34 19 3d 57 bd a6 bb 9a be c6 bc
       0.04645099 0.037404023 -0.005088489 -0.024260808
000110 5b 49 88 bd 25 34 a2 3c ba bc c2 bd b6 35 a3 3d
       -0.066546164 0.019800255 -0.09508653 0.07969229
000120 ca e5 80 3c db 4b 02 be 89 02 35 3e 0a ef 1d 3d
       0.015734572 -0.12724249 0.17676748 0.038558044
000130 5b 74 8c 3d d7 43 c3 3d 6f e9 64 3e 3f 13 b1 3d
       0.068581305 0.09534424 0.22354673 0.08646249
000140 22 32 2b 3e 3d 1e 99 3d 88 9c 02 3c ce 30 39 3e
       0.16718343 0.074764706 0.00797189 0.18085024
000150 e7 b8 de bd a0 9f 3f 3e 08 b2 11 be 3a b2 28 3e
       -0.10875111 0.18713236 -0.1422807 0.16474238
000160 8b 3a 56 bd fd 5b 1e bc 54 81 06 be 3c c3 d6 bd
       -0.052301925 -0.009665486 -0.13135272 -0.10486457
000170 bb 90 7a 3d 99 dc 84 3e 70 d2 57 3e 38 aa a7 bd
       0.061173182 0.25949553 0.2107637 -0.081867635
000180 74 ef 50 3e 04 70 bf 3d f0 3f a2 3d ae 93 14 3e
       0.20403844 0.09347537 0.07922351 0.1450946

lstm.bias_hh_l0 f4 [100]
000000 90 15 f2 bd e2 02 07 3e ff 6e a2 be c6 31 86 bd
       -0.11820519 0.13184693 -0.31725308 -0.06552462
000010 9a 58 c7 bd c2 70 da bd 3e 12 9f 3e 32 0a 8c 3d
       -0.09733696 -0.10666038 0.31068605 0.06837882
000020 96 6e ee bd 8c 37 55 3d 89 0c 22 be e3 a9 06 bc
       -0.11642186 0.052054927 -0.15825094 -0.008219215
000030 67 10 b0 3d 3f 19 3d 3e 01 c6 df 3d 2c 5c 9b 3e
       0.085968785 0.18466662 0.10926438 0.3034376
000040 55 04 92 bd 07 c5 a9 bc b3 5c f7 3d e1 ca af 3d
       -0.071297325 -0.020723833 0.12078228 0.08583618
000050 e3 30 de bd 01 f8 10 3e 9e 1b 48 3e e7 d1 1d 3e
       -0.10849168 0.14157106 0.19541785 0.15412103
000060 e8 d9 56 bb 96 20 46 3d 4d 21 29 bc b4 cc b1 3d
       -0.003278369 0.04837092 -0.010322881 0.08681622
000070 42 f4 a2 bd d9 f5 e0 bd 2d 98 d0 3d c3 e2 a9 3e
       -0.07956745 -0.10984392 0.10185275 0.33180818
000080 fa fe 11 3d 62 91 f4 3c 93 4a cf bd 89 6b 86 3e
       0.035643555 0.02985448 -0.10121646 0.26253918
000090 6e c7 32 bc 1c 2e a6 3d 83 36 2e be 52 a4 3e 3e
       -0.010911806 0.081142634 -0.17012982 0.1861737
0000a0 0b 84 c1 b5 d2 88 0b be f9 06 67 3e f2 46 c5 3d
       -1.441805e-06 -0.13626412 0.22561254 0.09632672
0000b0 e1 a7 a6 3c d2 f7 11 3e 4a 17 09 3e 1b 14 4d bc
       0.020343723 0.14254692 0.1338779 -0.012517001
0000c0 d1 ac b8 bd 59 1d d3 3d 22 b6 b7 bd af 9e e4 bd
       -0.09017337 0.10308332 -0.08970286 -0.11163079
0000d0 0a b7 16 be 18 8b bd bc 57 eb 23 3e 91 ce 09 3d
       -0.14718261 -0.023137614 0.16007744 0.033644263
0000e0 44 99 ce 3d d2 6d ff bc eb ab 9f 3d f3 ca 67 3e
       0.10087827 -0.031180296 0.077964626 0.22636013
0000f0 5f 58 36 3e ae 96 44 be d2 a7 cb 3d 7c c5 46 3e
       0.17807148 -0.19198105 0.099441186 0.19411272
000100 10 40 cc 3d 66 00 04 bd 8b 4e 73 bd 35 97 f1 3c
       0.099731565 -0.032226942 -0.059401076 0.029491046
000110 02 8c 8b bc 9a 46 a6 bd b8 ab ea 3d 66 95 e6 3b
       -0.017034534 -0.08118935 0.11458534 0.0070368527
000120 98 49 5e bd b4 27 05 3b 71 6f 10 be 82 01 23 bd
       -0.054269403 0.0020317854 -0.14105012 -0.03979636
000130 2c 60 a7 3e 7f 9f 0c bc c0 af 92 3d 29 63 81 bd
       0.3269056 -0.008582949 0.07162428 -0.063177414
000140 d7 7e c5 3d 1c a9 a1 3d 84 b5 bb bd 1d 66 9d bb
       0.096433334 0.07893583 -0.09165481 -0.0048034326
000150 cc 47 ba bd 92 48 b2 3d f0 5b 07 3e 51 04 36 3e
       -0.090957254 0.08705248 0.13218665 0.17775084
000160 72 30 91 3b f4 46 3b 3c b8 16 c3 3d ff 48 ea 3d
       0.004430824 0.011430491 0.09525818 0.11439704
000170 e5 0f 03 3e 3c bf a6 bd 48 03 12 3e 59 18 36 3e
       0.12799032 -0.08141944 0.14259064 0.17782725
000180 d0 b0 29 3e 34 82 1d be f9 56 26 be fa c8 67 bd
       0.16571355 -0.153817 -0.16244115 -0.05658815

bn1.weight f4 [25]
000000 ad df 80 3f f9 42 75 3f 16 c4 81 3f ea 0d 7e 3f
       1.006826 0.9580532 1.0137966 0.9923998
000010 d6 0a 80 3f 63 20 8e 3f 8f 3f 7e 3f ce 39 77 3f
       1.0003307 1.1103634 0.9931573 0.9657258
000020 52 19 7b 3f 44 12 82 3f d1 87 7f 3f 37 5c 83 3f
       0.9808551 1.0161824 0.99816614 1.0262517
000030 3b f1 7b 3f b0 b8 85 3f 93 36 7a 3f c6 61 78 3f
       0.98414963 1.0446987 0.97739524 0.9702419
000040 f9 12 7f 3f 13 73 79 3f f0 8e 6f 3f 71 5c 84 3f
       0.99638325 0.97441214 0.9357748 1.0340711
000050 11 69 77 3f 5d cd 78 3f 4b 60 80 3f c5 eb 79 3f
       0.96644694 0.9718836 1.0029386 0.9762538
000060 0c 32 86 3f
       1.0484023

bn1.bias f4 [25]
000000 71 9f ca bb 27 02 78 3b 6d 52 fc 3b d3 cc 6a bb
       -0.0061835577 0.003784308 0.0077002556 -0.003582765
000010 2e 86 d9 bb 92 ff d2 3b 1e 27 84 3a 12 48 c8 ba
       -0.00663831 0.0064391578 0.0010082459 -0.0015280268
000020 60 dc 08 bb 1a 72 07 3c 2b f3 d8 3b 77 bf 22 3c
       -0.0020883307 0.00826695 0.0066207848 0.009933344
000030 59 5b bb 3b 24 8c 8a bb f9 21 0c 3b 2b f8 c0 bb
       0.0057176766 -0.004228132 0.0021382554 -0.005888959
000040 f1 63 d5 b9 db 37 94 bb 96 cd 9c bb 05 93 1d bb
       -0.00040700988 -0.00452326 -0.00478525 -0.002404393
000050 ef 00 17 ba 44 96 f2 3b b6 c1 00 bc 3c e4 3d bb
       -0.0005760332 0.007403167 -0.007858684 -0.002897515
000060 e6 77 ad ba
       -0.0013234585

bn1.running_mean f4 [25]
000000 c5 c5 98 be 23 e5 1a bf 31 80 10 3c 62 0c fc bd
       -0.29838386 -0.60505885 0.008819626 -0.12307049
000010 42 0f d6 bd 32 c4 b0 bd 1d 5e 1b 3f 40 d5 76 bc
       -0.10452129 -0.08631171 0.6069048 -0.015065491
000020 1d c1 8f be d7 af 1a 3e 79 b5 9b be a2 66 11 3d
       -0.2807702 0.1510614 -0.3041189 0.03549827
000030 36 ec be 3e 1f 57 4a 3e 15 5f aa 3e da 75 2e 3c
       0.3728959 0.19759797 0.33275667 0.010648215
000040 ff b5 82 3d 64 dd 25 3e 66 cf d8 be 0b 38 07 3f
       0.06382369 0.16197735 -0.42345732 0.5281989
000050 2c b3 01 3f 3e a5 df 3e 33 d7 e2 3c f5 c0 cc 3e
       0.5066402 0.43680757 0.027690506 0.39990965
000060 5d d2 57 3e
       0.21076341

bn1.running_var f4 [25]
000000 7a 53 30 3c 0e 18 a3 3c 96 04 ff 3a e2 53 36 3c
       0.01076209 0.019908931 0.0019456323 0.011128398
000010 26 c8 23 3b 38 55 25 3b 65 11 5f 3c f6 f2 c3 39
       0.0024991124 0.0025227796 0.013614987 0.00037374318
000020 25 4b 9a 3d 91 68 af 3a 1d a4 ba 3c 0f 49 e5 3d
       0.07533864 0.0013382604 0.022783333 0.111955754
000030 0e bf 87 3b df 76 9a 3a e9 ba 6a 3c b9 e1 43 3e
       0.0041426485 0.0011784694 0.014326789 0.19129075
000040 61 4e 9c 3b 17 6c f3 3b 83 e3 5d 3d b3 96 f5 3d
       0.0047700857 0.007428657 0.05417205 0.11991634
000050 6d f7 0c 3c b1 9a b4 3b e2 43 00 3b f0 13 7d 3c
       0.008603913 0.0055116047 0.0019571711 0.015446648
000060 70 32 47 3b
       0.0030395053

fc.weight f4 [2, 25]
000000 20 78 2d 3e 82 8e 0f be 35 0a 45 be d5 67 3e 3c
       0.16940355 -0.14019206 -0.19242175 0.011621435
000010 b0 db 16 3e 25 64 02 be cb 74 2c 39 d2 0c 63 3d
       0.14732242 -0.12733515 0.00016446707 0.05543215
000020 ae 9b 54 3c 24 f1 40 be ff 6c 36 be 4a 93 4f be
       0.01297657 -0.18841988 -0.17815016 -0.2027103
000030 25 c7 04 be 05 8d f3 3c 63 e0 ec 3b 23 75 2c 3e
       -0.12966593 0.02973033 0.0072288974 0.16841559
000040 8b a7 af 3d 59 58 75 3d 3b 59 4b 3e c9 44 dc 3d
       0.08576878 0.059898708 0.19858257 0.10755307
000050 99 55 82 3d 95 74 1c be 12 04 39 3e 5c 81 0c 3d
       0.06363983 -0.15278848 0.18067959 0.034303054
000060 e1 1b 99 3d 3e 95 9e bc 17 8b 6a bd 19 8b 12 3e
       0.074760206 -0.019358274 -0.057261553 0.14310874
000070 a0 6b 45 be 96 26 ce bd d9 52 2e 3e 69 1c d5 3d
       -0.19279337 -0.100659534 0.17023791 0.104058094
000080 ac f2 06 3d de 55 b1 bd 96 df 29 3e 67 12 5f 3d
       0.032946274 -0.08658956 0.16589198 0.05446091
000090 ff bc 3a 3e 3c 15 8b 3d 75 1e 4f be 21 58 41 3e
       0.18236159 0.067911595 -0.20226462 0.18881275
0000a0 6d 7c 01 3d cf 57 2f 3e ef c0 11 be 8a 86 06 3e
       0.031612802 0.1712334 -0.14233755 0.1313726
0000b0 9e 5a 43 3d 13 80 94 3d b5 55 25 3e 40 08 08 be
       0.04769384 0.07250991 0.16145976 -0.13284397
0000c0 77 5c ef bd da c4 83 3d
       -0.11687558 0.06434031

fc.bias f4 [2]
000000 77 d1 0e 3e 85 5d 57 3e
       0.13947092 0.21031769

bn2.weight f4 [2]
000000 3e 58 dd 3f b4 e1 d9 3f
       1.7292554 1.7022004

bn2.bias f4 [2]
000000 41 a3 75 bd 3e a3 75 3d
       -0.059970144 0.059970133

bn2.running_mean f4 [2]
000000 fd 53 fb 3d 6b 64 63 3e
       0.12271879 0.22206275

bn2.running_var f4 [2]
000000 9b 84 9b 3c 2b ee 7c 3d
       0.01898413 0.061750572
